…
        "_uuid": "c7ded4adc1757c88a1bea59ea36b1a9f7941bd28",
        "trusted": true
      },
      "cell_type": "code",
      "source": "model.summary()",
      "execution_count": 29,
      "outputs": [
        {
          "output_type": "stream",
          "text": "__________________________________________________________________________________________________\nLayer (type)                    Output Shape         Param #     Connected to                     \n==================================================================================================\ninput_1 (InputLayer)            (None, 128, 128, 1)  0                                            \n__________________________________________________________________________________________________\nconv2d_1 (Conv2D)               (None, 128, 128, 16) 160         input_1[0][0]                    \n__________________________________________________________________________________________________\nconv2d_2 (Conv2D)               (None, 128, 128, 16) 2320        conv2d_1[0][0]                   \n__________________________________________________________________________________________________\nmax_pooling2d_1 (MaxPooling2D)  (None, 64, 64, 16)   0           conv2d_2[0][0]                   \n__________________________________________________________________________________________________\ndropout_1 (Dropout)             (None, 64, 64, 16)   0           max_pooling2d_1[0][0]            \n__________________________________________________________________________________________________\nconv2d_3 (Conv2D)               (None, 64, 64, 32)   4640        dropout_1[0][0]                  \n__________________________________________________________________________________________________\nconv2d_4 (Conv2D)               (None, 64, 64, 32)   9248        conv2d_3[0][0]                   \n__________________________________________________________________________________________________\nmax_pooling2d_2 (MaxPooling2D)  (None, 32, 32, 32)   0           conv2d_4[0][0]                   \n__________________________________________________________________________________________________\ndropout_2 (Dropout)             (None, 32, 32, 32)   0           max_pooling2d_2[0][0]            \n__________________________________________________________________________________________________\nconv2d_5 (Conv2D)               (None, 32, 32, 64)   18496       dropout_2[0][0]                  \n__________________________________________________________________________________________________\nconv2d_6 (Conv2D)               (None, 32, 32, 64)   36928       conv2d_5[0][0]                   \n__________________________________________________________________________________________________\nmax_pooling2d_3 (MaxPooling2D)  (None, 16, 16, 64)   0           conv2d_6[0][0]                   \n__________________________________________________________________________________________________\ndropout_3 (Dropout)             (None, 16, 16, 64)   0           max_pooling2d_3[0][0]            \n__________________________________________________________________________________________________\nconv2d_7 (Conv2D)               (None, 16, 16, 128)  73856       dropout_3[0][0]                  \n__________________________________________________________________________________________________\nconv2d_8 (Conv2D)               (None, 16, 16, 128)  147584      conv2d_7[0][0]                   \n__________________________________________________________________________________________________\nmax_pooling2d_4 (MaxPooling2D)  (None, 8, 8, 128)    0           conv2d_8[0][0]                   \n__________________________________________________________________________________________________\ndropout_4 (Dropout)             (None, 8, 8, 128)    0           max_pooling2d_4[0][0]            \n__________________________________________________________________________________________________\nconv2d_9 (Conv2D)               (None, 8, 8, 256)    295168      dropout_4[0][0]                  \n__________________________________________________________________________________________________\nconv2d_10 (Conv2D)              (None, 8, 8, 256)    590080      conv2d_9[0][0]                   \n__________________________________________________________________________________________________\nconv2d_transpose_1 (Conv2DTrans (None, 16, 16, 128)  295040      conv2d_10[0][0]                  \n__________________________________________________________________________________________________\nconcatenate_1 (Concatenate)     (None, 16, 16, 256)  0           conv2d_transpose_1[0][0]         \n                                                                 conv2d_8[0][0]                   \n__________________________________________________________________________________________________\ndropout_5 (Dropout)             (None, 16, 16, 256)  0           concatenate_1[0][0]              \n__________________________________________________________________________________________________\nconv2d_11 (Conv2D)              (None, 16, 16, 128)  295040      dropout_5[0][0]                  \n__________________________________________________________________________________________________\nconv2d_12 (Conv2D)              (None, 16, 16, 128)  147584      conv2d_11[0][0]                  \n__________________________________________________________________________________________________\nconv2d_transpose_2 (Conv2DTrans (None, 32, 32, 64)   73792       conv2d_12[0][0]                  \n__________________________________________________________________________________________________\nconcatenate_2 (Concatenate)     (None, 32, 32, 128)  0           conv2d_transpose_2[0][0]         \n                                                                 conv2d_6[0][0]                   \n__________________________________________________________________________________________________\ndropout_6 (Dropout)             (None, 32, 32, 128)  0           concatenate_2[0][0]              \n__________________________________________________________________________________________________\nconv2d_13 (Conv2D)              (None, 32, 32, 64)   73792       dropout_6[0][0]                  \n__________________________________________________________________________________________________\nconv2d_14 (Conv2D)              (None, 32, 32, 64)   36928       conv2d_13[0][0]                  \n__________________________________________________________________________________________________\nconv2d_transpose_3 (Conv2DTrans (None, 64, 64, 32)   18464       conv2d_14[0][0]                  \n__________________________________________________________________________________________________\nconcatenate_3 (Concatenate)     (None, 64, 64, 64)   0           conv2d_transpose_3[0][0]         \n                                                                 conv2d_4[0][0]                   \n__________________________________________________________________________________________________\ndropout_7 (Dropout)             (None, 64, 64, 64)   0           concatenate_3[0][0]              \n__________________________________________________________________________________________________\nconv2d_15 (Conv2D)              (None, 64, 64, 32)   18464       dropout_7[0][0]                  \n__________________________________________________________________________________________________\nconv2d_16 (Conv2D)              (None, 64, 64, 32)   9248        conv2d_15[0][0]                  \n__________________________________________________________________________________________________\nconv2d_transpose_4 (Conv2DTrans (None, 128, 128, 16) 4624        conv2d_16[0][0]                  \n__________________________________________________________________________________________________\nconcatenate_4 (Concatenate)     (None, 128, 128, 32) 0           conv2d_transpose_4[0][0]         \n                                                                 conv2d_2[0][0]                   \n__________________________________________________________________________________________________\ndropout_8 (Dropout)             (None, 128, 128, 32) 0           concatenate_4[0][0]              \n__________________________________________________________________________________________________\nconv2d_17 (Conv2D)              (None, 128, 128, 16) 4624        dropout_8[0][0]                  \n__________________________________________________________________________________________________\nconv2d_18 (Conv2D)              (None, 128, 128, 16) 2320        conv2d_17[0][0]                  \n__________________________________________________________________________________________________\nconv2d_19 (Conv2D)              (None, 128, 128, 1)  17          conv2d_18[0][0]                  \n==================================================================================================\nTotal params: 2,158,417\nTrainable params: 2,158,417\nNon-trainable params: 0\n__________________________________________________________________________________________________\n",
          "name": "stdout"
        }
      ]
    },
    {
      "metadata": {
…
